…
activation: selu
gru1units: 192
gru1drop: 0.2
dropout1: 0.30000000000000004
gru2units: 16
gru2drop: 0.20000000000000004
optimizer: adam
learning_rate: 0.0001
Score: 0.8896164894104004
Trial summary
Hyperparameters:
activation: relu
gru1units: 64
gru1drop: 0.1
dropout1: 0.2
gru2units: 64
gru2drop: 0.1
optimizer: adam
learning_rate: 0.0001
Score: 0.8896164894104004
Model: "sequential"
_________________________________________________________________
 Layer (type)                Output Shape              Param #
=================================================================
 embedding (Embedding)       (None, 50, 300)           1500000

 gru (GRU)                   (None, 50, 64)            70272

 dropout (Dropout)           (None, 50, 64)            0

 gru_1 (GRU)                 (None, 48)                16416

 dense (Dense)               (None, 2)                 98

=================================================================
Total params: 1,586,786
Trainable params: 1,586,786
Non-trainable params: 0
_________________________________________________________________
42/42 [==============================] - 1s 8ms/step - loss: 0.0892 - categorical_accuracy: 0.8885
Model: "sequential"
_________________________________________________________________
 Layer (type)                Output Shape              Param #
=================================================================
 embedding (Embedding)       (None, 50, 300)           1500000

 gru (GRU)                   (None, 50, 192)           284544

 dropout (Dropout)           (None, 50, 192)           0

 gru_1 (GRU)                 (None, 16)                10080

 dense (Dense)               (None, 2)                 34

=================================================================
Total params: 1,794,658
Trainable params: 1,794,658
Non-trainable params: 0
_________________________________________________________________
42/42 [==============================] - 1s 15ms/step - loss: 0.0926 - categorical_accuracy: 0.8877
Model: "sequential"
_________________________________________________________________
 Layer (type)                Output Shape              Param #
=================================================================
 embedding (Embedding)       (None, 50, 300)           1500000

 gru (GRU)                   (None, 50, 192)           284544

 dropout (Dropout)           (None, 50, 192)           0

 gru_1 (GRU)                 (None, 64)                49536

 dense (Dense)               (None, 2)                 130

=================================================================
Total params: 1,834,210
Trainable params: 1,834,210
Non-trainable params: 0
_________________________________________________________________
42/42 [==============================] - 1s 16ms/step - loss: 0.0887 - categorical_accuracy: 0.8967
Model: "sequential"
_________________________________________________________________
 Layer (type)                Output Shape              Param #
=================================================================
 embedding (Embedding)       (None, 50, 300)           1500000

 gru (GRU)                   (None, 50, 64)            70272

 dropout (Dropout)           (None, 50, 64)            0

 gru_1 (GRU)                 (None, 16)                3936

 dense (Dense)               (None, 2)                 34

=================================================================
Total params: 1,574,242
Trainable params: 1,574,242
Non-trainable params: 0
_________________________________________________________________
42/42 [==============================] - 1s 8ms/step - loss: 0.0990 - categorical_accuracy: 0.8817
Model: "sequential"
_________________________________________________________________
 Layer (type)                Output Shape              Param #
=================================================================
 embedding (Embedding)       (None, 50, 300)           1500000

 gru (GRU)                   (None, 50, 128)           165120

 dropout (Dropout)           (None, 50, 128)           0

 gru_1 (GRU)                 (None, 48)                25632

 dense (Dense)               (None, 2)                 98

=================================================================
Total params: 1,690,850
Trainable params: 1,690,850
Non-trainable params: 0
_________________________________________________________________
42/42 [==============================] - 6s 13ms/step - loss: 0.0970 - categorical_accuracy: 0.8795

Process finished with exit code 0


import os
import pickle

import gensim
import keras_tuner as kt
…
