…
units_input: 896
units_hidden1: 512
rate1: 0.49999999999999994
units_hidden2: 128
rate2: 0.30000000000000004
units_hidden3: 32
optimizer: adam
Score: 0.9691969156265259
Trial summary
Hyperparameters:
activation: relu
units_input: 512
units_hidden1: 512
rate1: 0.35
units_hidden2: 96
rate2: 0.30000000000000004
units_hidden3: 32
optimizer: adam
Score: 0.9691969156265259
Model: "sequential"
_________________________________________________________________
 Layer (type)                Output Shape              Param #
=================================================================
 embedding (Embedding)       (None, 50, 64)            640000

 conv1d (Conv1D)             (None, 44, 250)           112250

 global_max_pooling1d (Globa  (None, 250)              0
 lMaxPooling1D)

 dense (Dense)               (None, 864)               216864

 dense_1 (Dense)             (None, 512)               442880

 dropout (Dropout)           (None, 512)               0

 dense_2 (Dense)             (None, 64)                32832

 dropout_1 (Dropout)         (None, 64)                0

 dense_3 (Dense)             (None, 16)                1040

 dense_4 (Dense)             (None, 2)                 34

=================================================================
Total params: 1,445,900
Trainable params: 1,445,900
Non-trainable params: 0
_________________________________________________________________
284/284 [==============================] - 1s 4ms/step - loss: 0.0529 - accuracy: 0.9845

Model: "sequential"
_________________________________________________________________
 Layer (type)                Output Shape              Param #
=================================================================
 embedding (Embedding)       (None, 50, 64)            640000

 conv1d (Conv1D)             (None, 44, 250)           112250

 global_max_pooling1d (Globa  (None, 250)              0
 lMaxPooling1D)

 dense (Dense)               (None, 640)               160640

 dense_1 (Dense)             (None, 224)               143584

 dropout (Dropout)           (None, 224)               0

 dense_2 (Dense)             (None, 80)                18000

 dropout_1 (Dropout)         (None, 80)                0

 dense_3 (Dense)             (None, 64)                5184

 dense_4 (Dense)             (None, 2)                 130

=================================================================
Total params: 1,079,788
Trainable params: 1,079,788
Non-trainable params: 0
_________________________________________________________________
284/284 [==============================] - 1s 4ms/step - loss: 0.0496 - accuracy: 0.9850

Model: "sequential"
_________________________________________________________________
 Layer (type)                Output Shape              Param #
=================================================================
 embedding (Embedding)       (None, 50, 64)            640000

 conv1d (Conv1D)             (None, 44, 250)           112250

 global_max_pooling1d (Globa  (None, 250)              0
 lMaxPooling1D)

 dense (Dense)               (None, 1024)              257024

 dense_1 (Dense)             (None, 128)               131200

 dropout (Dropout)           (None, 128)               0

 dense_2 (Dense)             (None, 64)                8256

 dropout_1 (Dropout)         (None, 64)                0

 dense_3 (Dense)             (None, 64)                4160

 dense_4 (Dense)             (None, 2)                 130

=================================================================
Total params: 1,153,020
Trainable params: 1,153,020
Non-trainable params: 0
_________________________________________________________________
284/284 [==============================] - 1s 4ms/step - loss: 0.0491 - accuracy: 0.9854