…
units_hidden: 384
units_hidden2: 224
optimizer: adam
Score: 0.9603960514068604
Trial summary
Hyperparameters:
activation: relu
units_input: 640
units_hidden: 576
units_hidden2: 64
optimizer: adam
Score: 0.9603960514068604
Trial summary
Hyperparameters:
activation: relu
units_input: 608
units_hidden: 576
units_hidden2: 64
optimizer: adam
Score: 0.9603960514068604
Model: "sequential"
_________________________________________________________________
 Layer (type)                Output Shape              Param #
=================================================================
 embedding (Embedding)       (None, 50, 50)            500000

 conv1d (Conv1D)             (None, 46, 250)           62750

 global_max_pooling1d (Globa  (None, 250)              0
 lMaxPooling1D)

 dense (Dense)               (None, 512)               128512

 dropout (Dropout)           (None, 512)               0

 dense_1 (Dense)             (None, 576)               295488

 dropout_1 (Dropout)         (None, 576)               0

 dense_2 (Dense)             (None, 320)               184640

 dense_3 (Dense)             (None, 2)                 642

=================================================================
Total params: 1,172,032
Trainable params: 1,172,032
Non-trainable params: 0
_________________________________________________________________
284/284 [==============================] - 1s 4ms/step - loss: 0.0532 - accuracy: 0.9839

Model: "sequential"
_________________________________________________________________
 Layer (type)                Output Shape              Param #
=================================================================
 embedding (Embedding)       (None, 50, 50)            500000

 conv1d (Conv1D)             (None, 46, 250)           62750

 global_max_pooling1d (Globa  (None, 250)              0
 lMaxPooling1D)

 dense (Dense)               (None, 672)               168672

 dropout (Dropout)           (None, 672)               0

 dense_1 (Dense)             (None, 576)               387648

 dropout_1 (Dropout)         (None, 576)               0

 dense_2 (Dense)             (None, 64)                36928

 dense_3 (Dense)             (None, 2)                 130

=================================================================
Total params: 1,156,128
Trainable params: 1,156,128
Non-trainable params: 0
_________________________________________________________________
284/284 [==============================] - 1s 3ms/step - loss: 0.0558 - accuracy: 0.9822

Model: "sequential"
_________________________________________________________________
 Layer (type)                Output Shape              Param #
=================================================================
 embedding (Embedding)       (None, 50, 50)            500000

 conv1d (Conv1D)             (None, 46, 250)           62750

 global_max_pooling1d (Globa  (None, 250)              0
 lMaxPooling1D)

 dense (Dense)               (None, 768)               192768

 dropout (Dropout)           (None, 768)               0

 dense_1 (Dense)             (None, 480)               369120

 dropout_1 (Dropout)         (None, 480)               0

 dense_2 (Dense)             (None, 64)                30784

 dense_3 (Dense)             (None, 2)                 130

=================================================================
Total params: 1,155,552
Trainable params: 1,155,552
Non-trainable params: 0
_________________________________________________________________
284/284 [==============================] - 1s 3ms/step - loss: 0.0628 - accuracy: 0.9814